trained_model/model_weights.pt (torch, 529375 bytes, 3 tensors)

conv_1.weight f4 [32, 3, 3, 3]
000000 66 55 f3 3d c0 d4 55 bd 09 24 ee 3d 33 5a ea bd
       0.11881523 -0.052204847 0.11627967 -0.114429854
000010 f5 9a 15 3e e6 06 04 be ec 7b 26 be 58 50 5a bd
       0.14609893 -0.12893257 -0.1625821 -0.053299278
000020 e8 69 0b 3e 40 f2 08 be 6b 6a 34 3e 23 e7 b7 3d
       0.13614619 -0.13373661 0.1761872 0.08979633
000030 ab 79 21 be af 9b 95 3d 47 cb c1 bd 64 39 2e 3e
       -0.15769069 0.07305085 -0.094626 0.1701408
000040 f9 0f 62 3d c9 59 96 3d fa e9 24 3e a2 9e 27 be
       0.055191014 0.07341344 0.1610488 -0.16369107
000050 ca bc aa 3c 4f 75 f8 bd 4e 3c 5f bd 09 ef fa bd
       0.020841975 -0.1213175 -0.05450087 -0.122526236
000060 a9 28 8a bd 6a e1 43 3e 01 35 1f be 9c 1e b9 3d
       -0.067460366 0.19128957 -0.15547563 0.090390414
000070 2e cb 07 bc e5 cd 90 bd b3 21 a0 3d c9 33 08 be
       -0.008288188 -0.07070521 0.078189276 -0.13301004
000080 97 21 dd bd 27 da 19 3e d9 a2 17 be b7 cb e7 3d
       -0.107974224 0.15024625 -0.14808215 0.113181524
000090 2a b9 45 3e fc 9d aa bd 4e a8 1b 3e 44 e9 1b 3b
       0.19308916 -0.083309144 0.15200922 0.002379016
0000a0 0c 3f d8 bd ec 18 87 bd 43 63 2f bd 84 3d 40 3e
       -0.105589 -0.0659655 -0.042819273 0.18773466
0000b0 a9 e4 c6 3d 34 82 2a be 21 f5 73 3d bc 21 f4 3d
       0.09711582 -0.16651231 0.059559945 0.11920497
0000c0 0a 03 0b bd 46 86 c6 3c 3c 50 23 be 67 35 24 be
       -0.033938445 0.024233948 -0.15948576 -0.16035996
0000d0 f6 15 73 3d e2 0f a7 bd 74 d4 04 bd 3e 44 a5 bd
       0.059347115 -0.08157326 -0.032429174 -0.08069657
0000e0 ed b5 7e bd 1d 1a 6d bd 6e 83 13 be 16 93 06 be
       -0.062185217 -0.05788623 -0.14405605 -0.13142046
0000f0 5c 5b 04 be de e2 3c 3e a2 73 70 3d 6d 92 a5 3d
       -0.12925476 0.18445918 0.058704026 0.08084569
000100 9c 2c 69 3d d5 07 8c 3d 7a 72 ee bd c9 60 d6 3d
       0.05692731 0.06837431 -0.116429284 0.10467679
000110 82 30 00 3e 23 17 e0 bc 1b a7 97 bb 4f 5b 61 3e
       0.12518504 -0.027354782 -0.004628075 0.22007488
000120 84 73 9d 3d 4f 70 1e bd 60 96 ba 3d 03 92 b8 bd
       0.076880485 -0.038681325 0.09110713 -0.090122245
000130 a7 0f f8 bd 25 32 54 3e 7a b1 71 bd 3c 97 1f be
       -0.121123604 0.20722254 -0.059007145 -0.15585035
000140 d9 8d 15 be cc d2 e9 3d 25 a5 02 3e 75 d8 04 be
       -0.14604892 0.114171594 0.1275831 -0.12973197
000150 67 8d 7d 3d e4 e7 9f 3d c6 3a d0 3d 4d b7 f6 bd
       0.06190243 0.078079015 0.1016746 -0.120466806
000160 67 7e 1c 3b 27 0b c1 3d 89 1c 3c be fb 71 1f 3e
       0.0023879053 0.09425955 -0.1837026 0.15570824
000170 d2 4c 14 3e bf 95 69 bc f7 40 05 3e c6 33 b1 bd
       0.1448243 -0.014256894 0.13013063 -0.08652453
000180 74 46 40 be a7 1e 0b bb 2a d7 61 bd b1 7a d1 3d
       -0.18776876 -0.0021227987 -0.055136837 0.1022848
000190 3b fa 20 be 2d 03 56 be 39 36 2d 3e 3d 63 cd 3d
       -0.15720455 -0.20899649 0.16915216 0.10028694
0001a0 4f 8b 4c be 2e 0e eb 3d a9 17 a8 bd ff e6 f1 bd
       -0.19975017 0.11477314 -0.08207638 -0.11811637
0001b0 35 7c bd 3b f3 0f 40 3e dc 2a d0 bd a4 02 80 bd
       0.005782629 0.18756084 -0.10164425 -0.06250504
0001c0 5a 23 dc bc 24 18 20 be d8 d3 70 bd 33 bc 95 3d
       -0.026872326 -0.15634209 -0.05879578 0.07311287
0001d0 b0 8f 0c be fc 39 ce 3b a9 42 1f be 28 a4 02 be
       -0.13726687 0.0062935334 -0.15552773 -0.12757933
0001e0 f2 8a ed bd 86 0f e1 3c 37 76 0e 3e d1 76 2f 3e
       -0.11598767 0.027473222 0.13912283 0.17135169
0001f0 39 c7 fb 3d b8 ea 02 be 92 b0 c4 bb 0d ac 3c bc
       0.12293858 -0.1278485 -0.006002494 -0.0115156295
000200 e6 8b 4e 3d 5a ba cf 3d 36 05 07 3e 06 8e 9a 3d
       0.050426386 0.101429656 0.13185582 0.0754662
000210 21 47 7e 3c c0 de 50 3e 88 db 2b be 81 8c 1e be
       0.015519888 0.20397472 -0.16782963 -0.15483285
000220 b0 a6 72 bd 9c fd a8 3d e7 ad 06 3e 12 8f 06 bb
       -0.059240997 0.08251497 0.13152276 -0.0020532054
000230 60 0d 09 bc 44 9a fe 3b 90 65 fc 3d f0 05 72 3d
       -0.008365005 0.0077698547 0.12324059 0.059087694
000240 06 8d 97 3c 16 da 31 3d 12 9c 17 3e c5 a7 e7 bd
       0.018499862 0.043420874 0.1480563 -0.113112964
000250 9d e7 dc 3b da 01 80 bd 98 a1 31 be 17 92 06 3e
       0.0067414776 -0.06250353 -0.173468 0.13141666
000260 33 39 fc bd 81 ed 22 3e d2 4c 0e bd 3f dc 2a be
       -0.123155974 0.15910913 -0.03474123 -0.1668558
000270 d0 06 be bd 8b 0b 06 bd bd a0 d1 3d 29 de b2 3d
       -0.09278643 -0.032725852 0.102357365 0.0873378
000280 c8 09 18 bd 2c 39 8c 3c 59 0e c1 3c 7d 52 20 be
       -0.037118703 0.017117105 0.023566412 -0.15656467
000290 8a 03 39 be c7 62 95 3c 4f ff 23 3e 6a c9 67 3c
       -0.18067756 0.018235577 0.16015361 0.014147142
0002a0 c3 4d a8 3d 2f f0 27 3e e6 5a ab bd ea 31 b2 bc
       0.08217957 0.16400217 -0.08366947 -0.021752317
0002b0 9e 73 18 bd a5 f5 93 3d 27 6f 1b bd 54 9b 7c bc
       -0.037219636 0.07224587 -0.0379478 -0.0154178925
0002c0 50 9c 23 3d 43 8b 1c bd 45 94 85 bb 20 de 0e be
       0.039943993 -0.038218748 -0.004076513 -0.13951921
0002d0 13 15 05 3e 00 0a 90 3d 7f 08 e0 bd 88 ad cb 3c
       0.1299632 0.07033157 -0.109391205 0.02486302
0002e0 e9 ca 8e bd 63 62 09 be de 26 48 3e e5 ac 34 bd
       -0.06972296 -0.13416438 0.19546077 -0.044110198
0002f0 70 8f 46 3e bc f9 f7 bc a6 1e a7 3d 63 5a 63 bd
       0.19390655 -0.03027045 0.081601426 -0.05550612
000300 98 53 67 3d f2 0d 05 3d 0c a4 2e be 99 0d 18 3e
       0.056476206 0.032484002 -0.17054766 0.14848937
000310 37 3f 98 3d b2 06 0c be aa 90 79 3c c3 89 d8 bd
       0.07433932 -0.13674429 0.0152322445 -0.10573151
000320 63 0a e1 3d cc 3b e0 bd 0e 6a 57 bd 3a 8f 7a 3d
       0.10988309 -0.10948905 -0.052591376 0.061171748
000330 69 23 b3 ba cc 90 3e 3d cc 6d 36 3e cf 6b 4e bd
       -0.0013667169 0.046524808 0.17815322 -0.050395783
000340 d6 73 1f be 63 49 02 be c1 33 c2 bd 83 96 83 3d
       -0.15571532 -0.12723307 -0.094825275 0.06425192
000350 1d 13 0a 3e e9 25 2a 3e 20 09 9b bd 6b 91 b4 bd
       0.13483854 0.16616024 -0.075701 -0.08816799
000360 41 1e 16 3e 60 bc 43 be 25 e5 c1 3d 29 a2 89 3d
       0.14659978 -0.19114828 0.09467534 0.06720383
000370 bc ed bd bd 16 3c 05 bd 59 8f e2 3d d1 c9 ff 3c
       -0.0927386 -0.032528006 0.11062498 0.031224163
000380 35 4e 88 bd f3 8d 92 3d 51 3e b8 bc c8 92 0d be
       -0.06655542 0.07155981 -0.022490652 -0.13825524
000390 b5 2b a6 bd cb c8 e3 3c cd 10 c5 3d a5 36 f2 3c
       -0.08113805 0.027805706 0.09622345 0.029567072
0003a0 cf 47 c4 3b e6 c8 0a 3e 92 be 5b 3d ad d5 d8 3c
       0.0059900056 0.13553199 0.05364854 0.026469076
0003b0 13 44 9d 3c 61 49 45 be 83 2a 30 be 55 89 f6 3d
       0.0191975 -0.19266273 -0.17203717 0.12037913
0003c0 92 1a 50 3c 4a 18 f4 bd 4b 59 d4 3d 01 5f 14 bd
       0.012701647 -0.11918695 0.10368594 -0.036223415
0003d0 5c 61 17 be ae 2c 26 be b8 9c 11 be a0 dd bc bd
       -0.14783233 -0.16227981 -0.1421994 -0.09221959
0003e0 ab 57 2c 3e 7a 61 37 3e f9 93 31 3e 6b 8b d1 3d
       0.16830318 0.17908278 0.17341603 0.1023167
0003f0 96 2a 5f 3b ec 6e 3c 3e 81 ce 0b 3e b6 42 d9 bd
       0.0034052483 0.18401688 0.13652994 -0.10608427

conv_1.bias f4 [32]
000000 99 dc 3c be f2 69 34 be 4d d5 a7 bd dd e1 89 3c
       -0.18443526 -0.1761854 -0.08194981 0.016831333
000010 75 84 00 bd 9e 96 f9 3d 9e ee da 3c 12 10 06 be
       -0.03137632 0.12186931 0.02672511 -0.13092068
000020 e3 1c 89 3d c7 7b 21 3e 46 93 00 be b8 5a 27 be
       0.06694963 0.15769874 -0.1255618 -0.163432
000030 c8 36 10 be c8 12 17 3e 26 dc a4 bd 2d 4b 0b be
       -0.14083397 0.14753258 -0.080498025 -0.13602896
000040 88 6a 18 be c5 2f 24 3d 25 43 04 bd 07 d3 0e be
       -0.14884388 0.04008462 -0.032290597 -0.13947688
000050 9e cb 32 3e 7f 4e 0a bd 51 0e 47 be 2f 58 31 3e
       0.17460486 -0.033766266 -0.19439055 0.17318796
000060 72 29 1d 3d bd 8a 24 3d 4d da ba 3d 3a af e6 3d
       0.038369603 0.040171374 0.09123669 0.112638906
000070 eb 83 1e be d6 ad 8b bd e3 0e de bd 97 19 36 3e
       -0.1548001 -0.06820266 -0.10842683 0.17783199

lin_1.weight f4 [1, 131072]
000000 7f e0 e6 ba 36 11 95 3a 94 71 5d ba 87 9c 48 3a
       -0.0017614512 0.0011372927 -0.00084474054 0.0007652719
000010 08 e3 cb ba d8 36 44 3a 67 0a 44 b9 d5 d3 36 3a
       -0.0015555331 0.0007484979 -0.00018695892 0.00069743145
000020 32 68 83 b9 f9 ba eb 3a 8a 94 19 3b 44 5b 10 ba
       -0.000250639 0.0017984799 0.0023434483 -0.00055067637
000030 2b 67 ab b9 e5 da 83 3a bf 8f dc ba 1a 34 04 3b
       -0.00032692528 0.0010059742 -0.0016827508 0.0020172657
000040 05 41 ae ba e9 2a 4e 3a 04 5f ad 39 a9 95 00 3a
       -0.0013294524 0.00078646705 0.00033067924 0.00049051136
000050 05 46 13 bb be 6d d4 b8 84 e0 da 39 66 43 0a 3b
       -0.0022472155 -0.00010129389 0.00041747477 0.0021097302
000060 05 11 31 3b cc 2e cc 3a 44 d5 63 3a 15 3b a6 3a
       0.00270182 0.0015577911 0.0008691142 0.0012682403
000070 05 37 3b 3b 95 69 98 ba 85 db ee b7 e2 f0 00 3b
       0.002856673 -0.0011628146 -2.8474033e-05 0.0019674827
000080 df 22 26 bb 55 17 09 bb 67 71 11 3a 6e 2b c9 3a
       -0.0025350375 -0.0020918448 0.00055482093 0.0015348026
000090 e2 0b 91 3a 64 f2 b3 ba 7e b8 cf 3a 53 3c bb b9
       0.0011066163 -0.0013728854 0.001584783 -0.00035712364
0000a0 bf 83 73 39 a0 ce 23 ba 49 71 c7 ba 69 9b 14 bb
       0.00023223365 -0.0006248746 -0.0015216257 -0.002267564
0000b0 09 7a c0 3a 3a 0c d4 39 cc 95 9d ba 19 e1 70 39
       0.0014684807 0.000404449 -0.0012022792 0.00022972039
0000c0 8a 21 0e 39 2b ba d5 ba 47 d1 23 3b b9 18 c1 39
       0.0001355467 -0.0016306093 0.0024996565 0.00036830248
0000d0 35 40 05 3a 30 6e 5a ba a6 65 14 ba 73 43 56 3a
       0.0005083115 -0.0008332459 -0.0005660899 0.0008173503
0000e0 82 45 f3 3a 1c 0c 85 3a 40 e6 06 bb 70 31 c8 3a
       0.0018560144 0.0010150704 -0.0020584017 0.0015273523
0000f0 e2 ea 20 ba 47 d9 45 b9 18 8f 22 ba 57 c1 18 3b
       -0.0006138516 -0.00018868326 -0.0006201132 0.00233086
000100 a7 d0 ca 39 5f 9e 9b 3a 65 f3 6e 39 e1 12 18 3b
       0.000386839 0.001187276 0.0002278812 0.0023204612
000110 8d 7f 35 3b 2a 4d 9e 3a 29 2d 1b bb 14 09 32 bb
       0.0027694434 0.001207744 -0.002367804 -0.0027166056
000120 24 94 63 3a 7c e2 b8 3a 5a 93 54 ba d2 64 52 3a
       0.00086814375 0.0014105584 -0.00081091153 0.00080258877
000130 08 71 81 39 ff 81 10 3b 65 95 8d b9 5b e5 a9 ba
       0.00024689012 0.002205014 -0.00027004923 -0.001296203
000140 48 a1 2b 3b 71 ff d8 b9 b4 69 2a 3b 6c 0a 4e ba
       0.002618866 -0.0004138905 0.0026002945 -0.00078598293
000150 7f e8 d8 b9 1e 4e 05 bb 70 2a 50 3a 2a cc f5 b9
       -0.00041371954 -0.002034075 0.0007940894 -0.00046882156
000160 67 f9 b5 ba 7e af 1d bb ec 0e 20 3b 30 5e eb 3a
       -0.0013883532 -0.00240609 0.0024422957 0.0017957147
000170 fe 32 c7 3a 97 2c 9e 3a 58 51 32 ba d4 d6 23 bb
       0.0015197692 0.0012067732 -0.00068022823 -0.0024999874
000180 ac f5 e3 3a fe 65 b0 3a 4f f4 fe 3a 2d fa 41 3a
       0.0017391942 0.001345813 0.0019451472 0.0007399645
000190 db ec ff 3a a4 61 c8 ba 01 d4 67 b8 bd 5c 6b ba
       0.0019525544 -0.0015287888 -5.5272136e-05 -0.00089783577
0001a0 a6 61 96 3a cf 52 ee b8 77 db 9b ba b6 a0 71 3a
       0.0011473193 -0.00011364149 -0.0011890967 0.0009217368
0001b0 38 94 c5 b9 6f 83 b1 ba 09 ee ed ba 62 2a ec ba
       -0.000376852 -0.0013543199 -0.0018152605 -0.0018018002
0001c0 94 7b 48 ba d1 8e de ba 52 e6 03 bb af 60 f3 ba
       -0.0007647809 -0.0016979818 -0.0020126295 -0.0018568243
0001d0 66 05 b3 ba d4 86 d1 3a 0a 37 ca 39 bc ff 15 3b
       -0.0013658225 0.0015985616 0.0003856945 0.0022888025
0001e0 a1 2e f7 39 e7 29 b0 ba 95 08 83 3a b5 a9 45 ba
       0.00047146252 -0.0013440222 0.0009997064 -0.0007540242
0001f0 5e b1 f9 ba 8b 53 48 3a d7 cb 17 3b 8c ee c7 3a
       -0.0019050052 0.00076418434 0.002316227 0.0015253588
000200 6b 1c 43 39 40 64 7a ba 76 db 2b b9 5e fb 06 bb
       0.00018607236 -0.00095516816 -0.00016389586 -0.0020596604
000210 ea bf 29 ba 30 01 b1 3a 2c 08 cb 3a d6 34 07 3b
       -0.0006475436 0.0013504382 0.0015490106 0.0020630858
000220 28 ff 02 3b 30 e8 11 3b 6b a3 cf 3a f2 76 9d ba
       0.001998851 0.0022263639 0.0015841549 -0.0012013598
000230 76 eb b7 ba b8 6e 06 bb 6d e1 d8 39 50 30 62 b9
       -0.0014031965 -0.002051277 0.00041366686 -0.00021571037
000240 db 93 f8 3a 29 85 31 3b b5 fa 41 b9 00 b8 d6 ba
       0.0018964963 0.0027087426 -0.0001849931 -0.001638174
000250 74 35 0d bb 96 fd 8e ba a5 02 fc b9 49 3c 1b bb
       -0.0021546753 -0.0010909315 -0.00048067156 -0.0023687056
000260 4c f1 18 3b 32 6e 2f bb 1d 18 77 ba ee 4c 0f 3b
       0.0023337184 -0.0026768562 -0.00094258954 0.0021865922
000270 41 c2 a6 3a 39 56 31 3b 2e cb 22 ba 4d 25 7b 39
       0.0012722687 0.002705945 -0.00062100857 0.00023951121
000280 a9 f4 a5 ba 54 d4 4e ba 69 e7 27 bb 5e ca cb b9
       -0.0012661415 -0.0007889916 -0.002562011 -0.00038869953
000290 28 49 f3 3a f0 8a ee 39 97 bc 10 bb 66 a7 8d 39
       0.0018561231 0.00045498414 -0.0022085065 0.00027018337
0002a0 58 ed c7 3a f2 3a 27 3a 72 2e 0f 3a f7 fe 28 3b
       0.0015253229 0.0006379328 0.0005461938 0.0025786737
0002b0 e8 0b a5 3a 25 73 20 bb 70 46 54 ba a9 86 08 bb
       0.0012592049 -0.0024482694 -0.0008097654 -0.0020832217
0002c0 9e 38 f1 ba 4d e4 90 ba 2d e7 0c b9 61 e8 24 3b
       -0.0018403714 -0.0011054367 -0.0001343756 0.0025162923
0002d0 49 37 03 bb ac f1 30 3b cf bf c7 b9 2f 23 e2 39
       -0.0020021966 0.0026999516 -0.00038099146 0.00043132293
0002e0 a5 48 4a ba 64 88 8a 3a 6d d5 14 bb 86 ec c6 b8
       -0.00077165134 0.0010569212 -0.002271022 -9.485432e-05
0002f0 97 ea 6b 3a a0 42 fe 39 43 24 83 3a de 31 58 ba
       0.0008999495 0.00048496295 0.0010005314 -0.0008247177
000300 8f ed 33 bb 30 02 d2 ba cd 35 83 3a 8e 16 0b bb
       -0.0027454828 -0.001602238 0.0010010541 -0.002122316
000310 ff 1c bd ba cf db 43 39 78 a2 6b 39 59 a0 1b 3b
       -0.0014428197 0.00018678534 0.00022471871 0.0023746698
000320 fe db fe 39 83 b0 d7 3a 37 98 28 ba 53 c6 85 3a
       0.00048610562 0.0016455803 -0.0006431373 0.00102062
000330 44 a7 9e ba 09 6f dc ba 11 4e 5e 39 f5 65 33 b9
       -0.0012104292 -0.0016817759 0.00021200652 -0.00017108752
000340 18 c9 21 3b 21 8e c6 ba 7b e1 1e bb f3 b3 0a bb
       0.0024686512 -0.0015148559 -0.0024243284 -0.0021164387
000350 a9 3d e3 39 12 61 f9 b9 82 87 3b b6 5e 77 01 3a
       0.00043342754 -0.00047565304 -2.7944047e-06 0.00049387466
000360 8e 58 1a ba 7f dc 11 3b d1 71 22 ba cf 06 05 bb
       -0.00058878295 0.002225667 -0.00061967695 -0.0020298248
000370 31 88 fd 3a 37 f5 b6 ba 62 b5 07 bb 8f 6f da b9
       0.0019342956 -0.0013958578 -0.0020707478 -0.00041663318
000380 a9 1e 16 3b 3d 71 4e 3a 6d d8 cc 38 a5 26 ea 3a
       0.0022906458 0.000787515 9.7677905e-05 0.00178643
000390 49 cd 17 bb af 2d f5 3a 2e 7d 6c ba 1b c9 82 ba
       -0.002316313 0.0018705631 -0.0009021339 -0.0009978147
0003a0 5a 96 02 3b 54 42 00 3b 3e 69 85 3a 65 b0 84 3a
       0.0019926042 0.0019570785 0.0010178459 0.001012337
0003b0 26 bf 80 3a b6 ca 04 3b c4 cf 7e ba da c9 23 bb
       0.0009822592 0.0020262427 -0.00097202905 -0.002499214
0003c0 ce e2 1b ba ee 49 43 3a 3b e1 27 3b ae 7c d8 39
       -0.00059465773 0.0007449676 0.0025616426 0.00041291624
0003d0 e5 3a b8 ba 5f 4f 81 b9 9d 0a cf ba 6c 2e b4 ba
       -0.0014055638 -0.00024663933 -0.001579601 -0.0013746745
0003e0 fc 04 da ba 3a be cb ba b3 d9 46 3a 2f 04 18 b9
       -0.0016633566 -0.0015544363 0.00075855403 -0.00014497408
0003f0 ba a0 5b 3a 80 03 b8 b9 93 26 af 3a 38 d9 35 3b
       0.0008378137 -0.00035097823 0.0013362936 0.002774788
